complete_verifier/exp_configs/random_torch/mimic_model_true.onnx (onnx, 598 bytes, 3 tensors)

0.weight f4 [10, 2]
00000000: c0b5 4a3e f510 473f 2122 b8be de00 053f
00000010: e0a5 1ebe b01c 123e d856 13bf 9392 3d3e
00000020: 9d70 173f 0519 01bf 3277 233f f6bb 833c
00000030: 3104 0a3f 59c0 813d 0503 c83e aa66 9abd
00000040: d106 d53e 62ba ae3e 9c03 a9be ec90 383e
0.19795895 0.7776025 -0.35963538 0.5195445 -0.15492964 0.14268756 -0.5755439 0.18512945
0.5915621 -0.504288 0.6385375 0.016080838 0.53912646 0.063355155 0.39064804 -0.07539113
0.41606763 0.34126574 -0.33010566 0.18024033

0.bias f4 [10]
00000000: 65c9 923f 3a15 74bd 860b 93be a343 3d3f
00000010: a7a5 1dbf a1cf 83be df45 13be f7a0 ccbe
00000020: 39d9 593f fdc9 32bf
1.1467711 -0.059590556 -0.2871973 0.7393133 -0.6158089 -0.25744346 -0.14382122 -0.39966556
0.8509708 -0.6983946

2.weight f4 [1, 10]
00000000: 26f7 913f 4cd7 17be eafe 793e 92d5 29bf
00000010: 8561 26be ff91 f23d c7a3 a8bc 3133 8c3e
00000020: 4fc4 563f 1e3f ccbd
1.1403549 -0.14828223 0.24413648 -0.6634151 -0.16248138 0.11844253 -0.020585908 0.27382806
0.83893293 -0.09972976
