complete_verifier/exp_configs/random_torch/mimic_model copy.onnx (onnx, 902 bytes, 4 tensors)

1.weight f4 [10, 4]
000000 14 dd 46 3f 1a d9 01 bf aa b2 9b be 23 7b 89 3e
       0.7768109 -0.50721896 -0.30409747 0.26851758
000010 bb ef 0d 3e d8 93 b3 3e 9d 3d 2c bf 6e 45 cb 3e
       0.13860981 0.35073733 -0.67281514 0.39701408
000020 1a 7d fd be 95 77 3f 3f be ef b4 bc c1 52 55 be
       -0.49509507 0.7479184 -0.022086974 -0.2083235
000030 a7 51 93 be ab 33 e0 bd 3e 64 99 be b3 22 3d 3f
       -0.28773233 -0.10947355 -0.2995929 0.7388107
000040 e5 18 03 3f ca 00 6c 3e f2 bd dc 3d f0 aa 3d 3f
       0.5120986 0.23047176 0.10778417 0.74088955
000050 c4 75 a4 3e e4 30 84 3e 67 bc bf be a7 45 f0 be
       0.32121098 0.2581855 -0.37448427 -0.4692814
000060 19 37 ba be 9c d6 f3 bd 99 b6 b4 3e e7 33 d3 be
       -0.3637016 -0.11906168 0.3529556 -0.41250536
000070 24 da a8 be e4 9c 08 bf 09 2c 96 3e 20 8f 9c be
       -0.32978928 -0.53364396 0.2933047 -0.30577946
000080 86 8c c2 3d 3b 83 ee 3e a5 60 3a 3f d8 64 64 3b
       0.09499459 0.46584496 0.7280372 0.0034850147
000090 d6 a3 23 bf 58 98 b0 be 59 cd 83 be 9f 42 51 be
       -0.6392187 -0.3449123 -0.25742605 -0.2043557

1.bias f4 [10]
000000 30 3c 72 3d 0f 23 91 3e b7 eb 85 3e 77 04 4d 3f
       0.05913943 0.2834706 0.261564 0.8008494
000010 f8 8f e7 3e a9 cc d3 3d b5 22 92 be fa 44 02 3f
       0.45227027 0.1034177 -0.28542104 0.508865
000020 49 b1 3b 3e d2 af 0c 3e
       0.18329348 0.13738945

3.weight f4 [4, 10]
000000 2f d1 01 3f c5 ca 1d 3e 99 55 6b be 6b 74 1d bf
       0.50709814 0.15409382 -0.22981872 -0.61505765
000010 3f 0c a6 3e 66 f4 20 3e 47 6f d9 be ec d1 79 be
       0.32431218 0.1571823 -0.4246771 -0.24396485
000020 5a 60 2f be e0 d1 aa be b1 58 aa bd 03 0b e5 3e
       -0.17126599 -0.33363247 -0.08317698 0.44734964
000030 9c 99 56 3f 30 2a 82 be c1 d0 07 3e 40 c2 f6 bd
       0.8382814 -0.25422812 0.13263227 -0.12048769
000040 cd c2 0b be 52 f8 b3 be 58 e3 87 3e 6c 09 c2 be
       -0.1364853 -0.3515039 0.26540637 -0.37897813
000050 82 15 24 be 18 7d 26 bf 08 32 0d be fb 43 91 be
       -0.1602383 -0.6503463 -0.13788617 -0.28372177
000060 ae fc 08 3f fb 4c f5 be 3e 4a 06 3f 95 4f 86 3e
       0.5351056 -0.47910294 0.52457035 0.2623259
000070 e6 5e 12 3f 3f c5 9d be a1 15 d8 be 36 1e 49 be
       0.57176054 -0.3081455 -0.42204002 -0.19640431
000080 56 d2 92 be 57 b5 0f 3f 3e 50 41 3f c8 e2 bb be
       -0.286761 0.5613608 0.75513065 -0.36696458
000090 18 3c 18 bd f6 c8 d4 be 0a 83 39 be 63 ae db bc
       -0.037166685 -0.4155957 -0.18116394 -0.026816553

3.bias f4 [4]
000000 ea 0f 0a 3f da 2d a3 bd 8f 7c 06 3e 58 16 02 be
       0.5393053 -0.0796773 0.13133453 -0.12703836
