complete_verifier/exp_configs/random_torch/mimic_model.pth (torch, 1911 bytes, 4 tensors)

fc1.weight f4 [10, 4]
0.501964 0.39813977 -0.5051253 0.56950366 0.14210516 0.18026993 -0.3503333 -0.64926505
0.44022256 0.2521587 0.71326613 0.33700344 0.112165265 -0.076288275 -0.2554725 -0.17610475
-0.4788008 0.74954987 -0.4585415 -0.4002343 -0.09979283 -0.5384694 0.4059013 -0.6822958
-0.43763828 -0.7303994 -0.18280676 0.41187245 -0.3858804 0.3688966 -0.21974856 0.10920989
-0.16134694 0.5252155 0.48225406 -0.5461306 -0.65111977 0.26063973 0.51448965 0.35263366
00000000: b680 003f fad8 cb3e e44f 01bf feca 113f
00000010: 0484 113e ae98 383e e35e b3be 3c36 26bf
00000020: da64 e13e f21a 813e 9c98 363f b78b ac3e
00000030: e7b6 e53d 073d 9cbd 4bcd 82be ce54 34be
00000040: 6125 f5be 80e2 3f3f f4c5 eabe 83eb ccbe
00000050: 2f60 ccbd 21d9 09bf 4cd2 cf3e f0aa 2ebf
00000060: 2012 e0be 75fb 3abf b231 3bbe f2e0 d23e
00000070: 1e92 c5be 04e0 bc3e c405 61be 6fa9 df3d
00000080: 2238 25be 8674 063f 01ea f63e 37cf 0bbf
00000090: c9af 26bf 9272 853e 98b5 033f 668c b43e

fc1.bias f4 [10]
0.34636533 0.4403462 0.17906143 -0.48506388 0.39469874 -0.18410486 0.49756858 -0.5045265
0.044688355 0.4491736
00000000: cc56 b13e 0f75 e13e e15b 373e 4b5a f8be
00000010: f415 ca3e fc85 3cbe 4fc1 fe3e a628 01bf
00000020: 230b 373d 15fa e53e

fc2.weight f4 [4, 10]
0.54055214 0.114789456 0.56608915 0.018328855 -0.52551824 -0.075448476 -0.52337277 0.25754943
0.24730587 -0.46972802 0.37574342 -0.1855409 0.14442609 -0.03571178 0.5374641 -0.47414038
-0.5291072 -0.12116642 0.45763385 0.39214095 -0.51689523 -0.42120594 0.50619334 0.230172
-0.47152 0.38812038 -0.52517945 0.24330534 0.5440246 0.4033277 0.5646351 -0.37538508
-0.18397322 0.234783 -0.33306167 -0.616704 0.34307498 -0.20560752 -0.023738971 0.5190295
00000000: a061 0a3f bc16 eb3d 38eb 103f 6526 963c
00000010: 5d88 06bf bb84 9abd c2fb 05bf 85dd 833e
00000020: c03d 7d3e 3180 f0be 7161 c03e 6ffe 3dbe
00000030: 6fe4 133e 8446 12bd 3f97 093f 87c2 f2be
00000040: 9273 07bf 1a26 f8bd fc4e ea3e b3c6 c83e
00000050: 3f53 04bf 4ea8 d7be e395 013f 35b2 6b3e
00000060: 126b f1be b7b7 c63e 2972 06bf 0925 793e
00000070: 3245 0b3f f880 ce3e ed8b 103f 7932 c0be
00000080: 7a63 3cbe f46a 703e 0f87 aabe 50e0 1dbf
00000090: 86a7 af3e c78a 52be 3b78 c2bc 1edf 043f

fc2.bias f4 [4]
0.23963328 -0.33544844 0.44518942 -0.15691543
00000000: 6d62 753e e6bf abbe deef e33e 70ae 20be
