complete_verifier/exp_configs/random_torch/mimic_net.onnx (onnx, 904 bytes, 4 tensors)

fc1.weight f4 [10, 4]
0	0xbf64eff6	-0.8942865
1	0xbeb61a5f	-0.35566995
2	0xbd9784a7	-0.07398348
3	0x3e8ef8fa	0.2792433
4	0xbde54864	-0.11195448
5	0xbdd029d3	-0.10164227
6	0xbe7cac67	-0.24675141
7	0x3dd37fbc	0.10327098
8	0xbe8b0319	-0.271508
9	0xbf33c6af	-0.7022504
10	0x3ef52386	0.47878665
11	0xbe486a38	-0.19571769
12	0xbf012579	-0.50447804
13	0x3efea9e8	0.49739003
14	0x3e9499ab	0.2902349
15	0x3e6bf29f	0.23041771
16	0x3e86a191	0.2629514
17	0xbf1216d3	-0.57066077
18	0xbe9f8915	-0.31159273
19	0xbeee5f97	-0.46557304
20	0xbf0da4af	-0.5532941
21	0xbe3fb2d3	-0.1872056
22	0xbeac0af3	-0.33602104
23	0xbef91f35	-0.48656622
24	0xbf268617	-0.65048355
25	0x3eb21502	0.34781653
26	0x3f0bb238	0.54568815
27	0xbe3180d6	-0.17334303
28	0x3e219dd2	0.1578286
29	0xbea1baea	-0.31587917
30	0x3ea28aa4	0.317464
31	0x3e20d35e	0.1570563
32	0xbd95c717	-0.07313364
33	0xbea4e1e2	-0.32203585
34	0x3e9b42b8	0.3032434
35	0xbf2108d7	-0.62904114
36	0x3e329987	0.17441379
37	0x3f0a5580	0.5403671
38	0xbee38377	-0.44436237
39	0x3e6c84f9	0.230976

fc1.bias f4 [10]
0	0x3ee1e6c8	0.44121385
1	0xbeb5c57a	-0.35502225
2	0xbeac3a43	-0.336382
3	0x3f16a41e	0.5884417
4	0x3eaacc66	0.3335907
5	0x3f15ef51	0.5856829
6	0xbe1b34a8	-0.15156806
7	0x3f67c414	0.90533566
8	0xbe0545e0	-0.13014936
9	0xbdbae864	-0.09126356

fc2.weight f4 [4, 10]
0	0xbf2dadf7	-0.67843574
1	0x3df88c64	0.121361524
2	0xbde3ac6f	-0.111168735
3	0xbe8cd10f	-0.2750325
4	0x3e15d3f4	0.14631635
5	0xbe836d7a	-0.2566946
6	0xbe3eb075	-0.18622
7	0x3ec259ac	0.3795904
8	0xbd9c9cad	-0.07647071
9	0x3db39fde	0.087707266
10	0xbe88920e	-0.2667393
11	0x3dfcea4f	0.12349378
12	0xbec85fb4	-0.39135516
13	0x3f49e654	0.7886708
14	0xbe870463	-0.26370534
15	0xbd8ea44f	-0.06964933
16	0x3d817f72	0.063231364
17	0xbf24bf41	-0.6435433
18	0x3d1e3c15	0.038631517
19	0x3ebf8c5e	0.3741178
20	0xbe05048e	-0.12990019
21	0x3e110b5f	0.14164494
22	0x3ebfea7f	0.37483594
23	0x3eb388a3	0.35065183
24	0xbea4f758	-0.32219958
25	0xbf09a5e3	-0.5376875
26	0x3edf300e	0.4359135
27	0x3f16a7d0	0.5884981
28	0x3f090ba7	0.53533405
29	0xbf25fcdd	-0.64838964
30	0x3e79013e	0.2431688
31	0xbe7448c6	-0.23855886
32	0xbe4d3fde	-0.20043895
33	0x3e61fde9	0.22069515
34	0xbf0bf110	-0.5466471
35	0xbf0bde06	-0.54635656
36	0xbf19be4d	-0.60056
37	0x3eaf6703	0.3425828
38	0xbef8300f	-0.48474166
39	0xbdb63c57	-0.08898228

fc2.bias f4 [4]
0	0x3e92033f	0.28518102
1	0x3ea1ccfa	0.31601697
2	0xbea3f4c3	-0.32022676
3	0x3f03cefa	0.51487696
