data/model/trained_model.pth (torch, 4759 bytes, 6 tensors)

fc1.weight f4 [50, 2]
0	0x3d2db90a	0.042412795
1	0x3f27eaba	0.6559254
2	0x3f2ea64e	0.6822251
3	0xbef207cb	-0.4727157
4	0xa0841b03	-2.2379545e-19
5	0x9ebe7675	-2.0166025e-20
6	0x3f04e284	0.51908135
7	0x3e32439b	0.17408602
8	0xbe4234a8	-0.189654
9	0x3f5937d2	0.848508
10	0x3ee636fa	0.4496382
11	0xbed00a4d	-0.4063286
12	0x3e97115b	0.2950543
13	0x3f3b3f1a	0.7314316
14	0xbebfbf79	-0.3745077
15	0x3e5b3a2e	0.21408913
16	0x3eb5bcad	0.3549551
17	0x3f0a36f3	0.53990096
18	0x3f0020dc	0.5005014
19	0x3e653125	0.22382028
20	0xbf09e476	-0.5386423
21	0xbec62f0f	-0.38707778
22	0xbefef4a4	-0.4979602
23	0x3ef1294f	0.47101828
24	0x3e915a62	0.2838927
25	0x3f1f469a	0.62217104
26	0xbf03ab5a	-0.51433337
27	0x3ef170e5	0.47156444
28	0xbe310875	-0.17288382
29	0xbe19ec7d	-0.1503162
30	0x3e8fd103	0.2808915
31	0x3ea7d57d	0.32780066
32	0x3f3319b2	0.6996108
33	0x3eaa5a31	0.33271936
34	0x3d886c43	0.06661274
35	0x3ece9179	0.40345362
36	0xbe1dd64e	-0.15413782
37	0xbefd7eaf	-0.49510714
38	0xbebb69de	-0.36604208
39	0xbed8b91c	-0.42328727
40	0xbd1a9bee	-0.037746362
41	0xbf35592f	-0.7083921
42	0xbee8133d	-0.45327178
43	0xbf4a1fa2	-0.7895452
44	0xbe330b0b	-0.17484681
45	0xbf1b4979	-0.60658985
46	0x3dbed22a	0.09317429
47	0xbf957e04	-1.1679082
48	0xbcce734f	-0.025201468
49	0xbf9d4984	-1.228806
50	0x3f02224c	0.5083358
51	0xbdc66cf5	-0.09688751
52	0xbf485c2a	-0.7826563
53	0xbd9d6346	-0.076849505
54	0x3c500b7a	0.012698049
55	0xbf82a220	-1.0205727
56	0xbf173f10	-0.590806
57	0xbf2b4073	-0.66895217
58	0x3f17cdc3	0.5929834
59	0xbe1b8556	-0.15187582
60	0x3d637de2	0.055539973
61	0xbf88f2ab	-1.0699056
62	0xbe00e892	-0.12588719
63	0x3d81d06b	0.06338581
64	0x3eddbeaf	0.43309543
65	0xbf264796	-0.6495298
66	0x3ed8d27a	0.4234808
67	0xbf104982	-0.56362164
68	0xa1519620	-7.1010643e-19
69	0x222c14dc	2.332139e-18
70	0xbef898f9	-0.4855421
71	0xbf2bdbe6	-0.67132413
72	0xbe7eb722	-0.24874547
73	0x3f12dd79	0.5736919
74	0x3e1279e1	0.14304306
75	0xbe9928f5	-0.2991406
76	0xbf1346b1	-0.5752974
77	0xbd91a151	-0.07110847
78	0x3f2e2465	0.68024284
79	0x3f12b2d9	0.5730415
80	0xbd7ca32e	-0.061679058
81	0x3f7ed1f6	0.99539125
82	0x3f0a7259	0.5408073
83	0x3e6bfc05	0.23045357
84	0x3db91319	0.09036846
85	0xbee88cce	-0.45419925
86	0xbe33edf3	-0.17571239
87	0xbddcd203	-0.10782244
88	0x3da941f9	0.082645364
89	0xbea7b2b7	-0.32753536
90	0xbea4a609	-0.32157925
91	0x3d20dfab	0.039275806
92	0xbb58d973	-0.0033088594
93	0x3f81af0a	1.0131543
94	0x3d815da8	0.06316692
95	0x3f79f9ae	0.97646606
96	0x3f0ad376	0.54228914
97	0x3f051695	0.5198758
98	0xbe438990	-0.19095445
99	0x3f29baa9	0.66300446

fc1.bias f4 [50]
0	0x3ea63283	0.32460412
1	0xbec3b68a	-0.38225204
2	0xa4eec032	-1.0354164e-16
3	0x3edbe4eb	0.42948088
4	0xbf8366cf	-1.026575
5	0xbe8d0a81	-0.27547076
6	0xbe49acf9	-0.1969489
7	0x3eb64fa0	0.35607624
8	0x3be4bb7d	0.006980358
9	0x3cec62e7	0.028855754
10	0xbd1010d6	-0.035172306
11	0x3e46c264	0.19410092
12	0x3f220b4a	0.63298476
13	0x3ee1df79	0.4411581
14	0xbbd44e6e	-0.006479076
15	0xbc9ff1b8	-0.01952444
16	0x3eb96116	0.36206883
17	0xbe9a3be6	-0.30123824
18	0x3ebdd7a4	0.37078583
19	0x3e11e6d9	0.14248218
20	0x3f2a16f0	0.6644125
21	0x3d1dd489	0.038532767
22	0x3f0fb20e	0.56131065
23	0xbf1aa90c	-0.60414195
24	0xbef40a1c	-0.47663963
25	0x3f1eb32b	0.6199214
26	0xbf2b0503	-0.6680452
27	0xbf137e10	-0.5761423
28	0xbb0c5ccb	-0.0021417614
29	0x3f5c276f	0.8599767
30	0xbf01fa97	-0.50772995
31	0x3ef93933	0.48676452
32	0x3e94680b	0.28985628
33	0xbd78a696	-0.060705744
34	0xa3580052	-1.1709451e-17
35	0xbe62e3a9	-0.22157158
36	0xbcc37223	-0.023858136
37	0x3f490070	0.7851629
38	0x3e592139	0.2120408
39	0xbe7f2724	-0.24917275
40	0x3ee5fd15	0.4491965
41	0x3ee52d28	0.44761014
42	0x3e8fd8a7	0.2809498
43	0x3f39a881	0.7252274
44	0x3f311d15	0.69185
45	0x3df19571	0.11796082
46	0xbf62690d	-0.88441545
47	0x3ef732eb	0.48281035
48	0xbf76a5a7	-0.96346515
49	0x3f466632	0.7749969

fc2.weight f4 [10, 50]
0	0x3d88b823	0.06675746
1	0xbde43a6d	-0.11143956
2	0x0109743e	2.5246326e-38
3	0x3d0a3245	0.033739347
4	0x3e1a10c7	0.15045463
5	0xbe845864	-0.25848687
6	0xbe2aeffc	-0.1669311
7	0x3e4ca39f	0.19984291
8	0xbafdecd2	-0.0019372946
9	0x3db30c3c	0.08742568
10	0x3d8abd79	0.0677442
11	0x3d722322	0.059115537
12	0x3e3229e3	0.17398791
13	0x3e30bb6c	0.17258996
14	0x3dcdfb77	0.10057729
15	0x3de3c3f6	0.11121361
16	0xbc22b861	-0.009931655
17	0xbf8a7bee	-1.081907
18	0x3d53c168	0.05169812
19	0xbe0bf117	-0.13666187
20	0xbf2d2b5c	-0.67644286
21	0xbe9a2f29	-0.30114105
22	0x3eb604a6	0.3555042
23	0xbf41b9be	-0.75674045
24	0xbf981837	-1.188239
25	0x3d7a5d7e	0.061124317
26	0xbe2501ad	-0.1611392
27	0xb906ee53	-0.00012868019
28	0xbdca1060	-0.098664045
29	0x3e254b42	0.1614199
30	0xbf8c64de	-1.0968282
31	0x3e691b6f	0.22764371
32	0x3cb78f03	0.02240706
33	0xbd068dbf	-0.032850023
34	0xa150d748	-7.0758064e-19
35	0xbe1b2981	-0.15152551
36	0x3d2a7b92	0.041621752
37	0x3d975668	0.073895276
38	0xbe142280	-0.14466286
39	0xbcbf1530	-0.023325533
40	0xbd0b922a	-0.03407494
41	0xbd906d2b	-0.07052072
42	0xbdc26154	-0.0949122
43	0x3e4c0456	0.19923529
44	0x3e487bac	0.19578427
45	0xbe671b02	-0.22568896
46	0x3e3c4050	0.18383908
47	0xbd66b279	-0.05632255
48	0x3e6d001b	0.23144571
49	0x3e0c5f2f	0.13708185
50	0x8083cbb0	-1.210352e-38
51	0xb122d54b	-2.3695346e-09
52	0x8009dc76	-9.05606e-40
53	0xb4614476	-2.0979664e-07
54	0x0181ea52	4.772335e-38
55	0xae89b50b	-6.2621984e-11
56	0x812ec146	-3.209742e-38
57	0xb838b878	-4.404082e-05
58	0x00bc68cd	1.7302669e-38
59	0xa29a8916	-4.188693e-18
60	0xba1a39cc	-0.0005883246
61	0xb44699a2	-1.8496078e-07
62	0xab9ef6b2	-1.1295047e-12
63	0xb84558f9	-4.7051322e-05
64	0xb5901569	-1.0735067e-06
65	0x819c5691	-5.7429566e-38
66	0xb3fcdf5f	-1.17752954e-07
67	0x004a96b0	6.849883e-39
68	0xbad0615c	-0.0015898156
69	0xba632590	-0.000866496
70	0xbb3156d0	-0.00270598
71	0xbb034179	-0.0020028038
72	0xbb2cbf45	-0.0026359123
73	0xb9910dcb	-0.00027666832
74	0xba234a8d	-0.00062290655
75	0xb8426082	-4.6343084e-05
76	0xb81e1571	-3.7690104e-05
77	0xb9214db6	-0.00015383106
78	0xbab3d97f	-0.0013721435
79	0xb9881f56	-0.00025963288
80	0xb99fc713	-0.00030475165
81	0xb8b3afc2	-8.5681226e-05
82	0xb9e0333e	-0.00042762788
83	0xb62a1c31	-2.5348384e-06
84	0x0191f2b2	5.361284e-38
85	0xba2ae74a	-0.000651945
86	0x81941faa	-5.441205e-38
87	0xbaa22088	-0.0012369314
88	0xba17a66e	-0.0005784993
89	0x01822a60	4.7815263e-38
90	0x90de2ddf	-8.7634236e-29
91	0xb491d2ef	-2.716183e-07
92	0xb9894cf1	-0.00026188002
93	0xba9ddacd	-0.0012043357
94	0xbaa9feea	-0.0012969647
95	0xb7a91571	-2.0156354e-05
96	0x00e4dce8	2.101774e-38
97	0x8a252cb8	-7.952872e-33
98	0x017aeb94	4.6086767e-38
99	0xb4f32f3c	-4.5296645e-07
100	0xbd276c92	-0.040875025
101	0x3c33f415	0.010983487
102	0x016509d4	4.2067709e-38
103	0xbc8763d8	-0.016527101
104	0xb8d85f03	-0.0001031738
105	0x3c10c5cf	0.008836224
106	0xbce7f300	-0.028314114
107	0xbcf4928f	-0.02985504
108	0xbcce97d3	-0.02521888
109	0xbc8da0ee	-0.017288651
110	0xbc4672d4	-0.012112338
111	0xbd09304b	-0.03349332
112	0xbd190169	-0.03735486
113	0xbd265789	-0.040610824
114	0xb985bb88	-0.00025507458
115	0xbca96e4c	-0.020682476
116	0xbc961c89	-0.018324153
117	0xbc617824	-0.013761554
118	0xbc42ba04	-0.01188517
119	0xbc5a1179	-0.01330983
120	0xbc4b7b4b	-0.012419532
121	0xbc47270e	-0.012155307
122	0xbc6d074d	-0.014467073
123	0x3bc0df36	0.005885984
124	0x3b1f84d4	0.0024340646
125	0xbc748e11	-0.014926449
126	0xbaf367ae	-0.0018570328
127	0x3b698074	0.0035629543
128	0xbc6982a6	-0.01425234
129	0xbc91d676	-0.017802458
130	0x3b976fe8	0.0046214946
131	0xbd22dc50	-0.039760888
132	0xba61abf3	-0.0008608691
133	0x3b823acb	0.003974294
134	0x81496140	-3.6987643e-38
135	0xbbb9f917	-0.005675446
136	0xbd1052f4	-0.03523536
137	0xbcfa95af	-0.030588953
138	0xbc9646d7	-0.018344326
139	0xbcc57b00	-0.024106503
140	0xbd424ed2	-0.04743845
141	0xbc913adf	-0.017728267
142	0xbb924712	-0.0044640386
143	0xbd221d7c	-0.0395789
144	0xbcdb0438	-0.02673541
145	0xbc2ff71d	-0.010740069
146	0xbcd9d5de	-0.026591238
147	0xbd3510cf	-0.044205483
148	0xbc4540bd	-0.012039361
149	0xbd4c6173	-0.049897622
150	0xbe7a662c	-0.24453038
151	0x3e890ab2	0.26765972
152	0x014ee665	3.8001524e-38
153	0x3c8eec6d	0.017446721
154	0xbe5afcb5	-0.21385463
155	0x3db778bb	0.089585744
156	0xbd3f880d	-0.046760608
157	0x3d00566b	0.031332415
158	0xbe686981	-0.22696497
159	0x3e48fa62	0.19626763
160	0x3e52b52d	0.20576926
161	0x3e5f37eb	0.21798675
162	0xbe51fafa	-0.20505896
163	0xbd22e439	-0.03976843
164	0x3e233ea4	0.15941864
165	0xbe44c21e	-0.19214675
166	0xbc67ca2c	-0.014147323
167	0xb9926b52	-0.0002792725
168	0x3da18bc8	0.07887989
169	0x3e1b734f	0.15180705
170	0xbdc0b0b2	-0.09408702
171	0xbdaf15f9	-0.08549113
172	0x3d63e545	0.05563857
173	0x3ea42fce	0.32067722
174	0x3e59d12f	0.21271203
175	0x3d51d58a	0.051229037
176	0x3eaf96d2	0.34294754
177	0xbf26d85b	-0.6517388
178	0x3e14fb3b	0.14548962
179	0xbe00870e	-0.1255152
180	0x3e5aedc3	0.21379761
181	0xbc049cea	-0.008094052
182	0x3e2dc422	0.1696935
183	0x3dba39a6	0.09093027
184	0x9ddfbe44	-5.922434e-21
185	0xbd54cb24	-0.051951542
186	0x3e647074	0.22308522
187	0x3d8750d6	0.06607215
188	0x3e037862	0.12838891
189	0xbe4db87e	-0.2008991
190	0x3e6766ee	0.22597858
191	0xbc906c4a	-0.017629761
192	0x3e0e1738	0.13876045
193	0x3de821c2	0.11334564
194	0xbd1eae72	-0.038740583
195	0x3d4a9ea1	0.049467687
196	0xbf1048f5	-0.56361324
197	0xbe907dd4	-0.28221
198	0x3974574d	0.00023302175
199	0xbe5b9d0c	-0.21446627
200	0x3e04a633	0.12954025
201	0xbe11078c	-0.14163035
202	0x810ba301	-2.5647217e-38
203	0xbc0b4514	-0.008500356
204	0x3d304600	0.043035507
205	0xbe19dcf5	-0.15025695
206	0xbcc61d5a	-0.024183918
207	0x3d8aaa75	0.06770793
208	0xbd847762	-0.06468083
209	0xbdb3419d	-0.08752749
210	0xbca0e926	-0.019642424
211	0x3cd0d975	0.025494317
212	0xbd54e599	-0.051976774
213	0x3de9a28b	0.11407956
214	0x3d1c1340	0.038104296
215	0xbc00937e	-0.007847665
216	0x3d456f47	0.048201825
217	0xbf6cc137	-0.9248232
218	0x3ec00b9b	0.37508854
219	0x3dd3f116	0.10348718
220	0xbf0e1d74	-0.5551369
221	0xbeb726be	-0.35771745
222	0x3e778787	0.24172793
223	0xbf73782f	-0.9510526
224	0xbf986aa3	-1.1907543
225	0x3d1edd36	0.038785182
226	0xbe8ecab6	-0.2788903
227	0x8125a5eb	-3.0424754e-38
228	0xbea5cdd6	-0.32383603
229	0x3e6e08b5	0.23245509
230	0xbf57a6f0	-0.842391
231	0x3e21e251	0.15808989
232	0x3cc16098	0.02360563
233	0xbd58c7f9	-0.052925084
234	0xa0a4caa3	-2.7916774e-19
235	0x3edce2c2	0.43141752
236	0x3cec0d54	0.02881495
237	0x3e261293	0.16218023
238	0xbc129890	-0.008947507
239	0x3e6f3918	0.23361623
240	0xbe8d8cbf	-0.27646443
241	0xbe08cdfc	-0.13359827
242	0xbe539280	-0.20661354
243	0x3dee07ef	0.11622607
244	0x3e630d4c	0.22173041
245	0xbdb09696	-0.08622472
246	0x3ed1bce9	0.4096444
247	0x3c29540d	0.010334981
248	0x3e06466d	0.13112803
249	0x3dfc24cd	0.12311707
250	0xbd850ed4	-0.06496969
251	0x3e02c006	0.12768564
252	0x816b3d37	-4.3206603e-38
253	0x3d3a30cf	0.045456704
254	0x3d6a2c79	0.05717132
255	0x3e616cf4	0.22014219

fc2.bias f4 [10]
0	0x3e8c071c	0.27349174
1	0xbaa2ed04	-0.0012430255
2	0xbd40656b	-0.04697172
3	0xbded89e4	-0.11598566
4	0x3dac6b42	0.08418895
5	0x3dffa285	0.1248217
6	0x3e168d77	0.14702402
7	0x3d237465	0.039905924
8	0x3e817d21	0.25290778
9	0x3d876432	0.066109076

fc3.weight f4 [2, 10]
0	0x3ee5be15	0.44871584
1	0xbc4e3956	-0.012586912
2	0x3c9b9617	0.018992467
3	0xbe661c39	-0.22471704
4	0x3f5f09d2	0.8712436
5	0x3eef6621	0.46757606
6	0xbf71b472	-0.9441596
7	0xbf344ae4	-0.70426774
8	0xbe82a1eb	-0.2551416
9	0xbec20d27	-0.3790066
10	0x3f1d2a9e	0.61393154
11	0xbb00f4ea	-0.001967723
12	0x3c9703a6	0.018434357
13	0xbf18e40c	-0.5972297
14	0x3e9822b3	0.29713973
15	0x3e5aa2a5	0.21351106
16	0xbfa374a6	-1.2769973
17	0xbda8b005	-0.08236698
18	0x3e789e5a	0.24279156
19	0xbfa930da	-1.3218033

fc3.bias f4 [2]
0	0xbbef1832	-0.0072965855
1	0xbe394a1c	-0.18094677
