complete_verifier/mimic_model.onnx (onnx, 902 bytes, 4 tensors)

1.weight f4 [10, 4]
00000000: cdd7 d5bc 5fd1 53be 967b 93be 2b00 74bf
00000010: 932b 483d 6010 cbbe fe6e a2be c2cc 9dbe
00000020: 174e 823e 49f0 9dbe 5868 cebe f69b 763e
00000030: 31e2 993e 9d03 f73e aa8c af3c 6bdb 9fbe
00000040: 700e 033f 7a3c 08bf 2575 31be 5683 3d3e
00000050: eea1 943e 7c0d 17be c49d e73e a0e5 87bd
00000060: 145d b33e 69a7 2bbf 74b9 a13e f84c d33e
00000070: 5f59 42bf 0f37 9fbe 28cd 4c3e 55c8 14bf
00000080: dbdf 30bf 13ef 963d 41e5 ed3e 3975 033f
00000090: fbfd 083e 9acb 54b9 d97c 5abf 6b78 f03e
-0.026103878 -0.20685337 -0.28805226 -0.95312756 0.04886968 -0.3966093 -0.31725305 -0.3082028
0.25450203 -0.30847386 -0.40313983 0.24082932 0.30055383 0.48244944 0.021429379 -0.3122209
0.51193905 -0.5321728 -0.17329843 0.18507132 0.29029793 -0.14751238 0.45237553 -0.06635594
0.3503195 -0.6705232 0.31586802 0.4126966 -0.7591762 -0.31096694 0.20000136 -0.5811818
-0.69091576 0.073698185 0.4646397 0.5135074 0.13378136 -0.00020293743 -0.8534675 0.46966872

1.bias f4 [10]
00000000: a72a 6c3e 7131 f9be 93a7 bc3e e614 2dbe
00000010: 3043 1dbe c643 f6be d492 0a3f 5f03 413e
00000020: a6fb 153e dfdd 8c3e
0.23063146 -0.48670533 0.368466 -0.16902503 -0.15357661 -0.48098582 0.5413029 0.18848942
0.14646778 0.27513024

3.weight f4 [4, 10]
00000000: a260 a53e d8c9 693e 5523 2dbe 444b f43e
00000010: 1f24 b53c 0082 1f3b c0c7 bb3e 5040 23bf
00000020: 7334 d9be 5e41 9b3e b604 2f3b dbd3 6c3c
00000030: 1d5d dabd 11ad 003f 30d8 03bf 1de0 8c3e
00000040: bde7 25bf ed51 17bf 6418 cd3e 6787 723e
00000050: c537 7dbe d466 94be 538b afbe 0f7b dfbd
00000060: 2307 15be d0dc babc 48c4 e73e b2e6 c33d
00000070: 87f7 c93e d406 49bf 3e4b 5abf 3ea3 2a3e
00000080: b62b 543e eae9 63be a193 2fbe b1cc a13e
00000090: 7606 003f d19c 94be f8b2 db3e 6e00 393e
0.32300287 0.22830904 -0.1690801 0.47713673 0.02211195 0.002433896 0.36675835 -0.6377001
-0.42422828 0.3032331 0.0026705689 0.014454807 -0.10662291 0.5026408 -0.5150175 0.27514735
-0.6480673 -0.59109384 0.4005767 0.23684464 -0.24728306 -0.28984702 -0.34285983 -0.109121434
-0.14553504 -0.02281037 0.45266938 0.09565486 0.3944666 -0.78526044 -0.8527106 0.16663834
0.207198 -0.222572 -0.1714616 0.3160148 0.5000986 -0.2902589 0.4290998 0.1806657

3.bias f4 [4]
00000000: b5aa d2bd 0323 fa3e 4f92 8c3e fbab 213d
-0.10286466 0.48854837 0.27455375 0.039470654
