complete_verifier/mimic_model.onnx (onnx, 902 bytes, 4 tensors)

1.weight f4 [10, 4]
0	0x3e095663	0.1341186
1	0xbebca8fd	-0.36847678
2	0x3f117bc7	0.56829494
3	0xbe804052	-0.25049073
4	0x3f18382d	0.5946072
5	0xbdd7ccf9	-0.10537142
6	0x3e9be9f9	0.30451944
7	0xbe983fa8	-0.29736066
8	0xbe951c1e	-0.29123014
9	0x3ea84cd0	0.32871103
10	0xbb986ac8	-0.004651401
11	0xbe901ee2	-0.28148562
12	0x3f213e39	0.6298557
13	0x3f154e97	0.58323044
14	0xbf13e71f	-0.5777454
15	0xbedb2845	-0.4280416
16	0x3eef7d29	0.46775177
17	0xbe8d1507	-0.27555105
18	0xbe12c335	-0.14332278
19	0xbecbfcd4	-0.3984133
20	0xbe9b8111	-0.30371907
21	0x3e90e26c	0.28297746
22	0xbe90a039	-0.2824724
23	0xbf053d7f	-0.5204696
24	0xbc5a2439	-0.0133143
25	0xbdd187ed	-0.10231004
26	0xbedc50ab	-0.43030295
27	0xbee505d9	-0.44731024
28	0xbf16c01e	-0.588869
29	0xbeafdb41	-0.34346965
30	0x3f4c1a70	0.7972784
31	0x3c0b1d69	0.008490899
32	0x3f25c43d	0.6475256
33	0xbda5b96c	-0.08092007
34	0xbeef76c8	-0.4677031
35	0x3f208c15	0.6271375
36	0x3db24ad2	0.08705677
37	0xbf7dc6ef	-0.99131674
38	0xbed97d7a	-0.42478544
39	0x3db6f7c4	0.08933976

1.bias f4 [10]
0	0x3ebdd2c6	0.3707487
1	0x3e9840a6	0.29736823
2	0x3e8dd39e	0.27700514
3	0xbc025f2c	-0.007957261
4	0xbec1f8ba	-0.37885076
5	0xbdff134e	-0.12454854
6	0xbe1ecdcf	-0.15508197
7	0xbe851521	-0.25992683
8	0x3ef1b434	0.47207797
9	0x3ec24426	0.37942618

3.weight f4 [4, 10]
0	0x3edf67ef	0.43633983
1	0x3ebafec1	0.36522487
2	0xbef21926	-0.47284812
3	0x3f1974f5	0.5994409
4	0x3d76afab	0.060226124
5	0xbe8d21dc	-0.27564895
6	0xbeb50d25	-0.3536159
7	0xbf27ab6b	-0.6549594
8	0x3eb4595c	0.35224426
9	0x3d2e28ad	0.04251926
10	0xbdcf6c8b	-0.10128125
11	0xbe87becf	-0.26512763
12	0x3e299ce9	0.16563763
13	0x3e623130	0.22089076
14	0x3c442958	0.011972748
15	0x3d2e411d	0.042542566
16	0x3dce988e	0.10087691
17	0xbe006f8d	-0.12542553
18	0x3e401051	0.18756224
19	0xbf5a0c2c	-0.8517482
20	0x3f0c4cf9	0.5480495
21	0x3e10f0ef	0.14154409
22	0xbe1daa8a	-0.15397087
23	0xbedfd350	-0.43715906
24	0x3ea3a1b1	0.31959298
25	0xbeee10d0	-0.46497202
26	0xbd044340	-0.032290697
27	0x3f05b537	0.52229637
28	0xbd5b9464	-0.053608313
29	0xbf06c46d	-0.5264347
30	0xbe80119e	-0.2501344
31	0xbebdee9c	-0.37096107
32	0xbe99006c	-0.29883134
33	0xbf1cd114	-0.6125653
34	0xbd12d487	-0.035847213
35	0xbca46c3a	-0.020071138
36	0xbe2327b9	-0.15933122
37	0x3cd47cc1	0.025938394
38	0x3f5303d7	0.82427734
39	0xbea48257	-0.3213069

3.bias f4 [4]
0	0xbe84a74e	-0.25908893
1	0x3e9348ee	0.28766578
2	0x3e1dec9f	0.15422295
3	0x3e0a9101	0.13531877
